…
   0           []                               \n"," er)                                                                                              \n","                                                                                                  \n"," input_right_angvel_z (InputLay  [(None, 1000, 1)]   0           []                               \n"," er)                                                                                              \n","                                                                                                  \n"," conv1d_left_acc_x (Conv1D)     (None, 751, 16)      4016        ['input_left_acc_x[0][0]']       \n","                                                                                                  \n"," conv1d_left_acc_y (Conv1D)     (None, 751, 16)      4016        ['input_left_acc_y[0][0]']       \n","                                                                                                  \n"," conv1d_left_acc_z (Conv1D)     (None, 751, 16)      4016        ['input_left_acc_z[0][0]']       \n","                                                                                                  \n"," conv1d_left_angvel_x (Conv1D)  (None, 751, 16)      4016        ['input_left_angvel_x[0][0]']    \n","                                                                                                  \n"," conv1d_left_angvel_y (Conv1D)  (None, 751, 16)      4016        ['input_left_angvel_y[0][0]']    \n","                                                                                                  \n"," conv1d_left_angvel_z (Conv1D)  (None, 751, 16)      4016        ['input_left_angvel_z[0][0]']    \n","                                                                                                  \n"," conv1d_right_acc_x (Conv1D)    (None, 751, 16)      4016        ['input_right_acc_x[0][0]']      \n","                                                                                                  \n"," conv1d_right_acc_y (Conv1D)    (None, 751, 16)      4016        ['input_right_acc_y[0][0]']      \n","                                                                                                  \n"," conv1d_right_acc_z (Conv1D)    (None, 751, 16)      4016        ['input_right_acc_z[0][0]']      \n","                                                                                                  \n"," conv1d_right_angvel_x (Conv1D)  (None, 751, 16)     4016        ['input_right_angvel_x[0][0]']   \n","                                                                                                  \n"," conv1d_right_angvel_y (Conv1D)  (None, 751, 16)     4016        ['input_right_angvel_y[0][0]']   \n","                                                                                                  \n"," conv1d_right_angvel_z (Conv1D)  (None, 751, 16)     4016        ['input_right_angvel_z[0][0]']   \n","                                                                                                  \n"," reshape_left_acc_x (Reshape)   (None, 751, 16, 1)   0           ['conv1d_left_acc_x[0][0]']      \n","                                                                                                  \n"," reshape_left_acc_y (Reshape)   (None, 751, 16, 1)   0           ['conv1d_left_acc_y[0][0]']      \n","                                                                                                  \n"," reshape_left_acc_z (Reshape)   (None, 751, 16, 1)   0           ['conv1d_left_acc_z[0][0]']      \n","                                                                                                  \n"," reshape_left_angvel_x (Reshape  (None, 751, 16, 1)  0           ['conv1d_left_angvel_x[0][0]']   \n"," )                                                                                                \n","                                                                                                  \n"," reshape_left_angvel_y (Reshape  (None, 751, 16, 1)  0           ['conv1d_left_angvel_y[0][0]']   \n"," )                                                                                                \n","                                                                                                  \n"," reshape_left_angvel_z (Reshape  (None, 751, 16, 1)  0           ['conv1d_left_angvel_z[0][0]']   \n"," )                                                                                                \n","                                                                                                  \n"," reshape_right_acc_x (Reshape)  (None, 751, 16, 1)   0           ['conv1d_right_acc_x[0][0]']     \n","                                                                                                  \n"," reshape_right_acc_y (Reshape)  (None, 751, 16, 1)   0           ['conv1d_right_acc_y[0][0]']     \n","                                                                                                  \n"," reshape_right_acc_z (Reshape)  (None, 751, 16, 1)   0           ['conv1d_right_acc_z[0][0]']     \n","                                                                                                  \n"," reshape_right_angvel_x (Reshap  (None, 751, 16, 1)  0           ['conv1d_right_angvel_x[0][0]']  \n"," e)                                                                                               \n","                                                                                                  \n"," reshape_right_angvel_y (Reshap  (None, 751, 16, 1)  0           ['conv1d_right_angvel_y[0][0]']  \n"," e)                                                                                               \n","                                                                                                  \n"," reshape_right_angvel_z (Reshap  (None, 751, 16, 1)  0           ['conv1d_right_angvel_z[0][0]']  \n"," e)                                                                                               \n","                                                                                                  \n"," conv2d_left_acc_x (Conv2D)     (None, 502, 14, 32)  24032       ['reshape_left_acc_x[0][0]']     \n","                                                                                                  \n"," conv2d_left_acc_y (Conv2D)     (None, 502, 14, 32)  24032       ['reshape_left_acc_y[0][0]']     \n","                                                                                                  \n"," conv2d_left_acc_z (Conv2D)     (None, 502, 14, 32)  24032       ['reshape_left_acc_z[0][0]']     \n","                                                                                                  \n"," conv2d_left_angvel_x (Conv2D)  (None, 502, 14, 32)  24032       ['reshape_left_angvel_x[0][0]']  \n","                                                                                                  \n"," conv2d_left_angvel_y (Conv2D)  (None, 502, 14, 32)  24032       ['reshape_left_angvel_y[0][0]']  \n","                                                                                                  \n"," conv2d_left_angvel_z (Conv2D)  (None, 502, 14, 32)  24032       ['reshape_left_angvel_z[0][0]']  \n","                                                                                                  \n"," conv2d_right_acc_x (Conv2D)    (None, 502, 14, 32)  24032       ['reshape_right_acc_x[0][0]']    \n","                                                                                                  \n"," conv2d_right_acc_y (Conv2D)    (None, 502, 14, 32)  24032       ['reshape_right_acc_y[0][0]']    \n","                                                                                                  \n"," conv2d_right_acc_z (Conv2D)    (None, 502, 14, 32)  24032       ['reshape_right_acc_z[0][0]']    \n","                                                                                                  \n"," conv2d_right_angvel_x (Conv2D)  (None, 502, 14, 32)  24032      ['reshape_right_angvel_x[0][0]'] \n","                                                                                                  \n"," conv2d_right_angvel_y (Conv2D)  (None, 502, 14, 32)  24032      ['reshape_right_angvel_y[0][0]'] \n","                                                                                                  \n"," conv2d_right_angvel_z (Conv2D)  (None, 502, 14, 32)  24032      ['reshape_right_angvel_z[0][0]'] \n","                                                                                                  \n"," maxpool_left_acc_x (MaxPooling  (None, 100, 2, 32)  0           ['conv2d_left_acc_x[0][0]']      \n"," 2D)                                                                                              \n","                                                                                                  \n"," maxpool_left_acc_y (MaxPooling  (None, 100, 2, 32)  0           ['conv2d_left_acc_y[0][0]']      \n"," 2D)                                                                                              \n","                                                                                                  \n"," maxpool_left_acc_z (MaxPooling  (None, 100, 2, 32)  0           ['conv2d_left_acc_z[0][0]']      \n"," 2D)                                                                                              \n","                                                                                                  \n"," maxpool_left_angvel_x (MaxPool  (None, 100, 2, 32)  0           ['conv2d_left_angvel_x[0][0]']   \n"," ing2D)                                                                                           \n","                                                                                                  \n"," maxpool_left_angvel_y (MaxPool  (None, 100, 2, 32)  0           ['conv2d_left_angvel_y[0][0]']   \n"," ing2D)                                                                                           \n","                                                                                                  \n"," maxpool_left_angvel_z (MaxPool  (None, 100, 2, 32)  0           ['conv2d_left_angvel_z[0][0]']   \n"," ing2D)                                                                                           \n","                                                                                                  \n"," maxpool_right_acc_x (MaxPoolin  (None, 100, 2, 32)  0           ['conv2d_right_acc_x[0][0]']     \n"," g2D)                                                                                             \n","                                                                                                  \n"," maxpool_right_acc_y (MaxPoolin  (None, 100, 2, 32)  0           ['conv2d_right_acc_y[0][0]']     \n"," g2D)                                                                                             \n","                                                                                                  \n"," maxpool_right_acc_z (MaxPoolin  (None, 100, 2, 32)  0           ['conv2d_right_acc_z[0][0]']     \n"," g2D)                                                                                             \n","                                                                                                  \n"," maxpool_right_angvel_x (MaxPoo  (None, 100, 2, 32)  0           ['conv2d_right_angvel_x[0][0]']  \n"," ling2D)                                                                                          \n","                                                                                                  \n"," maxpool_right_angvel_y (MaxPoo  (None, 100, 2, 32)  0           ['conv2d_right_angvel_y[0][0]']  \n"," ling2D)                                                                                          \n","                                                                                                  \n"," maxpool_right_angvel_z (MaxPoo  (None, 100, 2, 32)  0           ['conv2d_right_angvel_z[0][0]']  \n"," ling2D)                                                                                          \n","                                                                                                  \n"," flatten_left_acc_x (Flatten)   (None, 6400)         0           ['maxpool_left_acc_x[0][0]']     \n","                                                                                                  \n"," flatten_left_acc_y (Flatten)   (None, 6400)         0           ['maxpool_left_acc_y[0][0]']     \n","                                                                                                  \n"," flatten_left_acc_z (Flatten)   (None, 6400)         0           ['maxpool_left_acc_z[0][0]']     \n","                                                                                                  \n"," flatten_left_angvel_x (Flatten  (None, 6400)        0           ['maxpool_left_angvel_x[0][0]']  \n"," )                                                                                                \n","                                                                                                  \n"," flatten_left_angvel_y (Flatten  (None, 6400)        0           ['maxpool_left_angvel_y[0][0]']  \n"," )                                                                                                \n","                                                                                                  \n"," flatten_left_angvel_z (Flatten  (None, 6400)        0           ['maxpool_left_angvel_z[0][0]']  \n"," )                                                                                                \n","                                                                                                  \n"," flatten_right_acc_x (Flatten)  (None, 6400)         0           ['maxpool_right_acc_x[0][0]']    \n","                                                                                                  \n"," flatten_right_acc_y (Flatten)  (None, 6400)         0           ['maxpool_right_acc_y[0][0]']    \n","                                                                                                  \n"," flatten_right_acc_z (Flatten)  (None, 6400)         0           ['maxpool_right_acc_z[0][0]']    \n","                                                                                                  \n"," flatten_right_angvel_x (Flatte  (None, 6400)        0           ['maxpool_right_angvel_x[0][0]'] \n"," n)                                                                                               \n","                                                                                                  \n"," flatten_right_angvel_y (Flatte  (None, 6400)        0           ['maxpool_right_angvel_y[0][0]'] \n"," n)                                                                                               \n","                                                                                                  \n"," flatten_right_angvel_z (Flatte  (None, 6400)        0           ['maxpool_right_angvel_z[0][0]'] \n"," n)                                                                                               \n","                                                                                                  \n"," concat_left_right (Concatenate  (None, 76800)       0           ['flatten_left_acc_x[0][0]',     \n"," )                                                                'flatten_left_acc_y[0][0]',     \n","                                                                  'flatten_left_acc_z[0][0]',     \n","                                                                  'flatten_left_angvel_x[0][0]',  \n","                                          
…
                'flatten_right_acc_y[0][0]',    \n","                                                                  'flatten_right_acc_z[0][0]',    \n","                                                                  'flatten_right_angvel_x[0][0]', \n","                                                                  'flatten_right_angvel_y[0][0]', \n","                                                                  'flatten_right_angvel_z[0][0]'] \n","                                                                                                  \n"," dense1 (Dense)                 (None, 128)          9830528     ['concat_left_right[0][0]']      \n","                                                                                                  \n"," dropout (Dropout)              (None, 128)          0           ['dense1[0][0]']                 \n","                                                                                                  \n"," dense2 (Dense)                 (None, 64)           8256        ['dropout[0][0]']                \n","                                                                                                  \n"," dropout_1 (Dropout)            (None, 64)           0           ['dense2[0][0]']                 \n","                                                                                                  \n"," dense3 (Dense)                 (None, 32)           2080        ['dropout_1[0][0]']              \n","                                                                                                  \n"," dropout_2 (Dropout)            (None, 32)           0           ['dense3[0][0]']                 \n","                                                                                                  \n"," dense4 (Dense)                 (None, 16)           528         ['dropout_2[0][0]']              \n","                                                                                                  \n"," dropout_3 (Dropout)            (None, 16)           0           ['dense4[0][0]']                 \n","                                                                                                  \n"," output (Dense)                 (None, 188)          3196        ['dropout_3[0][0]']              \n","                                                                                                  \n","==================================================================================================\n","Total params: 10,181,164\n","Trainable params: 10,181,164\n","Non-trainable params: 0\n","__________________________________________________________
…
